hw2/hw2_4/checkpoint/ConvNet.pth (torch_old, 248432 bytes, 10 tensors)

conv1.weight f4 [6, 1, 5, 5]
0.27312264 0.23105407 0.028818537 -0.066432275 -0.03639395 0.09054633 -0.04681857 0.061971236
-0.21460146 -0.39572197 -0.24930972 -0.22688794 -0.4705919 -0.3095744 -0.56494266 -0.042865597
-0.49191606 -0.5681499 -0.5723339 -0.38760126 -0.007323556 -0.19627154 0.10200765 0.12376934
0.5779713 0.1860299 0.23823845 0.13522306 -0.12450315 0.11284791 0.34864646 0.44583493
0.102612175 -0.22491181 -0.045192987 0.6290859 0.37611225 -0.33588395 -0.3449904 -0.1288293
0.57592213 0.242886 -0.20647529 -0.17802557 -0.2847292 0.28070867 0.14925523 -0.12757029
-0.02527892 -0.1342337 -0.09509759 0.42836514 0.40348434 0.28476065 0.1749605 0.18053168
0.40714633 0.150511 -0.045122985 -0.13566351 0.303163 0.17348495 -0.055552334 -0.24840127
-0.3668296 -0.0045206835 -0.06372248 -0.5557523 -0.5667793 -0.27592304 0.082785964 -0.1518769
-0.5312575 -0.23471174 0.21619362 -0.29086936 -0.14621362 0.1726237 0.37684852 0.54924166
-0.4466931 -0.38205093 -0.4112816 -0.1574883 0.5462533 -0.24538565 -0.6791433 -0.5961923
-0.68355536 0.11541347 0.24498522 -0.0008215809 -0.45252177 -0.3766059 -0.20769341 0.5075032
0.28297094 0.26259765 -0.12131128 0.069390245 0.07742603 0.23097384 0.58144665 0.6766304
0.6814671 -0.12104096 0.2175111 0.22429706 0.45909908 0.6206377 -0.20432556 -0.054563005
-0.54424995 -0.63957745 0.087870926 0.1117799 -0.36632606 -0.8563954 -0.6610713 -0.13521823
0.3192318 -0.17588276 0.2029637 0.009695494 -0.050519586 -0.12708378 0.3566299 -0.1882421
-0.28267387 -0.12303324 0.2504154 0.20080952 -0.54181725 -0.48184302 0.033429734 -0.1146539
-0.0073298155 -0.29349047 0.09162746 0.37366924 -0.120724484 0.14322817 0.7068085 0.69800943
-0.17493668 0.15060537 0.34398314 0.07824331 -0.32827178 -0.13533759
00000000: bbd6 8b3e 7099 6c3e da14 ec3c a50d 88bd
00000010: d311 15bd 5b70 b93d d4c4 3fbd 8dd5 7d3d
00000020: 7cc0 5bbe 129c cabe 0c4b 7fbe 5055 68be
00000030: 6cf1 f0be 8980 9ebe 15a0 10bf d693 2fbd
00000040: 6cdc fbbe 4672 11bf 7984 12bf ac73 c6be
00000050: 71fa efbb 68fb 48be 63e9 d03d c87a fd3d
00000060: edf5 133f 9f7e 3e3e c8f4 733e ea77 0a3e
00000070: 82fb febd ce1c e73d ca81 b23e 7a44 e43e
00000080: 5526 d23d 484f 66be 481c 39bd c60b 213f
00000090: c991 c03e fbf8 abbe 95a2 b0be d4eb 03be
000000a0: a26f 133f 1cb7 783e 426e 53be 564c 36be
000000b0: 07c8 91be 0cb9 8f3e 5dd6 183e c9a1 02be
000000c0: bd15 cfbc 8f74 09be 86c2 c2bd ad52 db3e
000000d0: 8095 ce3e 26cc 913e d828 333e 4cdd 383e
000000e0: 7c75 d03e 8e1f 1a3e e1d2 38bd 60eb 0abe
000000f0: 2e38 9b3e 0aa6 313e d88a 63bd e75c 7ebe
00000100: 17d1 bbbe 3e22 94bb ee80 82bd c845 0ebf
00000110: 7318 11bf c945 8dbe b08b a93d 9e85 1bbe
00000120: 7e00 08bf 4658 70be dc61 5d3e d4ec 94be
00000130: 06b9 15be 44c4 303e 4af2 c03e 1a9b 0c3f
00000140: f5b4 e4be 2e9c c3be 8093 d2be 9d44 21be
00000150: 42d7 0b3f 6046 7bbe 56dc 2dbf 0fa0 18bf
00000160: 7cfd 2ebf e65d ec3d 68dd 7a3e 5c5f 57ba
00000170: efb0 e7be 7dd2 c0be 95ad 54be bbeb 013f
00000180: 91e1 903e 3373 863e 0c72 f8bd 791c 8e3d
00000190: 8a91 9e3d 6884 6c3e b0d9 143f a637 2d3f
000001a0: a174 2e3f 53e4 f7bd 3bbb 5e3e 21ae 653e
000001b0: 090f eb3e 1de2 1e3f b83a 51be 757d 5fbd
000001c0: f753 0bbf 59bb 23bf acf5 b33d dcec e43d
000001d0: 178f bbbe bb3c 5bbf f83b 29bf a676 0abe
000001e0: 5a72 a33e 9c1a 34be b7d5 4f3e d9d9 1e3c
000001f0: a0ed 4ebd 4022 02be 3298 b63e 89c2 40be
00000200: a1ba 90be daf8 fbbd 7336 803e 03a1 4d3e
00000210: 89b4 0abf 21b4 f6be 9eed 083d aacf eabd
00000220: f32e f0bb 6244 96be 2ea7 bb3d 9351 bf3e
00000230: 663e f7bd 68aa 123e 67f1 343f bfb0 323f
00000240: 9a22 33be 4b38 1a3e 8f1e b03e 073e a03d
00000250: 3d13 a8be f095 0abe

conv1.bias f4 [6]
-0.7765805 0.037425432 0.070133604 -0.5020799 0.16491523 0.18283987
00000000: fbcd 46bf 694b 193d 35a2 8f3d 4f88 00bf
00000010: 8adf 283e 603a 3b3e

conv2.weight f4 [16, 6, 5, 5]
0.16051058 0.028712602 -0.15329419 -0.3392216 -0.1670299 -0.032396924 -0.023185082 -0.36292526
-0.367909 -0.2153562 -0.057343114 0.0486004 -0.06234706 -0.23656595 -0.23773766 0.055265766
0.14213082 -0.032518756 -0.123878926 0.02848602 0.09517035 0.0070064026 -0.020571485 0.050889567
0.08137851 -0.04928283 -0.10402489 -0.2739943 -0.066243954 -0.049275555 -0.04081607 -0.08352419
-0.09804477 0.052271303 -0.03468003 -0.098226614 -0.049939565 -0.13934492 -0.19933696 -0.03740785
0.035242964 -0.1364011 -0.18587106 0.036903158 0.038714785 0.037196152 -0.15349081 -0.120652325
-0.018003419 -0.14375257 -0.02780014 -0.10759918 -0.23757735 -0.25135064 -0.1206622 -0.115329765
-0.17125654 -0.15999392 -0.063919194 -0.15341799 0.0059455675 0.1138178 0.040430762 -0.18483424
-0.07438534 0.08891142 0.06536799 -0.08027072 0.1778098 0.17310387 0.048930008 0.034039993
0.17146043 0.34264404 0.049473405 0.050070938 -0.085294954 -0.25655553 -0.11976312 -0.051018905
-0.050725862 -0.12599447 -0.08176949 -0.2044114 -0.09785977 -0.04519773 0.049369726 0.048646953
-0.20504631 -0.13458571 0.07717762 -0.041403566 -0.038999874 -0.21633133 -0.17056502 -0.07519968
0.032969 -0.021058224 0.024495956 0.037139844 -0.019367501 0.049295027 -0.040408734 -0.1011787
0.10249777 -0.17622414 0.07854145 0.46811095 0.39533392 -0.07306595 0.0029745908 0.23586445
0.24519129 -0.014254535 -0.14917065 -0.040675905 -0.20814684 -0.20359777 0.104643464 -0.09839885
-0.0440061 0.03968424 0.19558784 0.0075241826 -0.11397517 0.005458004 0.08829813 0.21287425
0.22663008 0.030620491 0.014091231 0.20094307 0.06581578 -0.056967326 0.058880396 -0.09013147
-0.098267294 -0.004922202 0.14778477 0.005824274 -0.099914216 0.08764134 0.056427766 0.068186
-0.05609929 -0.0075862603 -0.0054147914 -0.041288987 -0.028036943 -0.019203031 -0.080413125 -0.0648757
0.009590585 0.024988519 -0.042768847 -0.26343784 -0.15400791 -0.17246647 -0.11727868 -0.18705629
-0.119606 0.04919905 0.2408558 0.31207037 0.1806721 -0.101760335 0.05546688 0.23416056
0.071130544 0.0689372 0.027062971 0.1041588 0.12468075 0.050684497 -0.028121982 -0.05296612
-0.046669196 -0.14486213 -0.13645113 -0.026277127 -0.12386469 -0.031347077 0.03715803 -0.16530302
0.047419507 -0.004626385 0.059959833 0.034720395 -0.09662575 -0.05972009 -0.2649533 -0.072578005
-0.2009076 -0.29083347 -0.07646566 -0.06965707 0.107286595 0.0018765182 -0.10068608 0.0080624
-0.032287862 0.013826816 -0.18985632 -0.18303737 -0.062038463 -0.18673804 -0.10923103 -0.07247645
0.0022223613 0.09965254 -0.017455218 0.2510609 0.35899147 0.2820853 0.19259688 -0.04129496
0.10187457 0.031672947 -0.10087234 -0.22656956 0.012350578 0.08594087 0.06511012 -0.22486466
-0.05791611 0.11439848 -0.09116069 0.025676034 0.047048427 -0.0075100246 0.027769877 -0.04201245
-0.16549015 -0.19514742 -0.16050404 0.11582201 0.094114736 0.039096136 0.0014247975 -0.13898264
0.19229034 0.040984485 0.004613092 -0.048456263 -0.20089912 0.0942381 0.016968045 -0.028451372
-0.029616417 -0.14484496 -0.0689455 -0.00036223113 -0.007061744 -0.108527526 -0.031179408 -0.042940155
00000000: e35c 243e b136 eb3c 27f9 1cbe 74ae adbe
00000010: e309 2bbe a3b2 04bd a4ee bdbc 57d1 b9be
00000020: 925e bcbe 5686 5cbe 9de0 6abd 3711 473d
00000030: a15f 7fbd 583e 72be 8071 73be 5b5e 623d
00000040: be8a 113e 6332 05bd 3cb4 fdbd 845b e93c
00000050: ace8 c23d f795 e53b 8885 a8bc 9471 503d
00000060: c7a9 a63d cbdc 49bd 000b d5bd fb48 8cbe
00000070: e9aa 87bd 2ad5 49bd c02e 27bd bb0e abbd
00000080: b2cb c8bd 6f1a 563d a60c 0ebd 092b c9bd
00000090: 6e8d 4cbd 6fb0 0ebe fd1e 4cbe f938 19bd
000000a0: ed5a 103d bbac 0bbe fc54 3ebe c427 173d
000000b0: 6593 1e3d fe5a 183d b22c 1dbe 9118 f7bd
000000c0: e87b 93bc e033 13be 1fbd e3bc f55c dcbd
000000d0: 7a47 73be 08b1 80be be1d f7bd 0332 ecbd
000000e0: e05d 2fbe 72d5 23be 11e8 82bd 9b19 1dbe
000000f0: 09d3 c23b 4f19 e93d ba9a 253d 3045 3dbe
00000100: 5757 98bd 3117 b63d a7df 853d fa64 a4bd
00000110: c613 363e 2442 313e d56a 483d 856d 0b3d
00000120: 5393 2f3e 0a6f af3e a0a4 4a3d 2f17 4d3d
00000130: 1faf aebd 3f5b 83be 5e46 f5bd 33f9 50bd
00000140: ecc5 4fbd b204 01be c376 a7bd 3951 51be
00000150: b46a c8bd 4121 39bd e937 4a3d 0742 473d
00000160: a9f7 51be d6d0 09be 4d0f 9e3d c996 29bd
00000170: 55be 1fbd f685 5dbe 99a8 2ebe 4a02 9abd
00000180: 810a 073d 4c82 acbc beab c83c f31f 183d
00000190: 98a8 9ebc 95e9 493d a183 25bd c736 cfbd
000001a0: 5aea d13d 1a74 34be 57da a03d 3dac ef3e
000001b0: 3569 ca3e 9aa3 95bd 5af1 423b 7386 713e
000001c0: 6d13 7b3e da8b 69bc 31c0 18be c79b 26bd
000001d0: 7224 55be ef7b 50be 504f d63d 5685 c9bd
000001e0: be3f 34bd f18b 223d 2e48 483e 6b8d f63b
000001f0: d06b e9bd 0ed9 b23b a6d5 b43d b5fb 593e
00000200: b711 683e d3d7 fa3c e8de 663c 05c4 4d3e
00000210: 6cca 863d 9256 69bd 922c 713d d996 b8bd
00000220: 5d40 c9bd 6c4a a1bb e454 173e 8dd9 be3b
00000230: d39f ccbd 4e7d b33d cd20 673d 1aa5 8b3d
00000240: 5ec8 65bd 2a96 f8bb 906e b1bb a41e 29bd
00000250: bbad e5bc ad4f 9dbc a3af a4bd 8ddd 84bd
00000260: d421 1d3c b9b4 cc3c 632e 2fbd 53e1 86be
00000270: 40b4 1dbe 0d9b 30be ce2f f0bd af8b 3fbe
00000280: fef3 f4bd f184 493d e7a2 763e b0c7 9f3e
00000290: 1b02 393e b967 d0bd 3d31 633d c9c7 6f3e
000002a0: e4ac 913d f22e 8d3d 2ab3 dd3c 3551 d53d
000002b0: 9f58 ff3d 8c9a 4f3d 1260 e6bc 01f3 58bd
000002c0: 3328 3fbd bd56 14be d8b9 0bbe 2143 d7bc
000002d0: c5ac fdbd cb65 00bd 0533 183d 3245 29be
000002e0: f53a 423d ee98 97bb 7198 753d f936 0e3d
000002f0: b9e3 c5bd 0e9d 74bd f5a7 87be c7a3 94bd
00000300: b9ba 4dbe 20e8 94be 079a 9cbd 5ea8 8ebd
00000310: 13b9 db3d 81f5 f53a 8134 cebd 2818 043c
00000320: 4740 04bd df89 623c b269 42be 266e 3bbe
00000330: 0b1c 7ebd 4238 3fbe 85b4 dfbd 886e 94bd
00000340: 09a5 113b a216 cc3d 3ffe 8ebc 0e8b 803e
00000350: bbcd b73e 7c6d 903e 1e38 453e e724 29bd
00000360: 9da3 d03d 7ebb 013d 2896 cebd da01 68be
00000370: 145a 4a3c c401 b03d 7458 853d ec42 66be
00000380: 7139 6dbd c049 ea3d 75b2 babd 8c56 d23c
00000390: dab5 403d a716 f6bb a77d e33c 3f15 2cbd
000003a0: 4076 29be bad4 47be 2c5b 24be 1734 ed3d
000003b0: 3abf c03d 4523 203d 45c0 ba3a 7751 0ebe
000003c0: c2e7 443e 59df 273d 6c29 973b 137a 46bd
000003d0: 80b8 4dbe e8ff c03d 9200 8b3c da12 e9bc
000003e0: 219e f2bc 3d52 14be 4c33 8dbd d7e9 bdb9
000003f0: 3466 e7bb ae43 debd f56b ffbc 04e2 2fbd

conv2.bias f4 [16]
0.0025176408 -0.10065874 -0.010349235 0.06417885 -0.07980182 -0.12590672 -0.06828549 0.045375157
0.06910301 -0.09061142 -0.11416146 -0.09749512 -0.0008219053 0.14389949 -0.036162123 -0.11783802
00000000: 01ff 243b 2b26 cebd d68f 29bc 3370 833d
00000010: 236f a3bd b1ed 00be 43d9 8bbd 4ddb 393d
00000020: e185 8d3d 7b92 b9bd 7ccd e9bd 85ab c7bd
00000030: 2275 57ba 635a 133e bc1e 14bd 0f55 f1bd

fc1.weight f4 [120, 400]
0.02343674 -0.032512065 -0.011649427 -0.09446374 -0.06338411 -0.028160125 0.029455248 0.057071738
-0.04851484 0.052523464 -0.0593293 -0.08183045 0.09474104 -0.03687702 0.025649931 -0.0019171616
-0.13114245 0.002076518 0.021173658 0.031247472 0.060709365 -0.086968146 -0.05246348 -0.026993651
-0.08099034 -0.012799908 0.046301723 0.07703469 0.046944413 0.017644297 -0.117757395 -0.09449201
-0.011183014 0.05047207 -0.064095214 -0.1240751 0.0647352 -0.004577735 0.034505565 0.074519575
-0.09527492 0.061618675 0.032125637 -0.08144492 -0.07280972 -0.040446166 0.14256541 0.098082945
-0.060727894 -0.1186343 -0.072372474 -0.059651345 -0.0505448 -0.040486738 0.0483676 -0.046328403
0.22723308 0.01497405 0.018672312 0.073923096 0.2546594 0.279599 0.013998229 -0.06835641
-0.0016648954 -0.09429792 -0.14893328 -0.12852941 -0.013415662 0.019062044 -0.060759634 -0.039149307
-0.15853041 -0.032521088 0.04093691 0.13979374 -0.009617917 -0.17622857 -0.050825614 -0.06167722
0.25200182 0.20757286 -0.09337369 -0.018287655 -0.016027346 0.070283785 -0.012290536 0.0768089
-0.017158605 0.056185696 0.031842776 -0.22604915 -0.03044771 0.02661771 -0.01646072 0.054723084
-0.02376236 0.026632529 0.00881149 -0.15382162 -0.024290916 -0.06593575 -0.073952176 -0.029047426
-0.035866883 -0.0448185 -0.06503826 -0.02778012 0.006046728 0.030655004 0.01017869 -0.05095196
0.074201025 0.035851963 -0.0002706589 -0.0729227 -0.058574215 0.00246192 0.079799704 -0.011915697
-0.04668217 -0.020971093 -0.024907058 -0.0021028293 -0.04356336 -0.004839216 -0.030016508 -0.024341624
0.08917862 -0.024495589 -0.0049312585 0.05124603 -0.058121692 -0.05579679 -0.03199351 0.054604255
0.07491848 -0.06248153 -0.09132054 -0.06752533 -0.015433937 -0.01661311 -0.0312935 0.0050874506
-0.04763559 -0.01202599 -0.04297036 -0.026775474 -0.0301044 -0.017758047 0.020768745 0.0052679917
0.024897374 0.008326799 0.004589193 -0.02905484 0.029064376 0.010959031 0.040624123 -0.0006173811
-0.007848953 0.025150685 -0.0220564 -0.026183728 -0.04344853 0.009631899 0.043951496 0.03598232
-0.034306746 0.03346923 -0.0012300883 0.0066158576 0.015574924 0.040278412 0.027174402 -0.002520657
-0.027567774 -0.045432236 -0.05902097 -0.05210223 0.07534503 0.028410655 -0.124064505 -0.0394947
0.08912281 -0.005783698 0.04512321 0.03980329 0.02883379 0.097136274 0.048655115 -0.04759109
-0.025130939 -0.009441273 0.016353983 -0.0044511072 -0.054342706 0.008513223 -0.020300971 0.020726057
-0.05025225 -0.027616406 0.02699321 0.05513011 0.011776505 -0.0030551984 0.17669326 0.2056381
0.067776494 -0.027932303 -0.095623724 -0.07444943 -0.008485256 -0.2150019 -0.05932131 -0.12804842
-0.069244064 -0.03764604 -0.13902524 -0.058127847 -0.067723125 0.009220878 -0.08757205 0.02485957
0.035308424 -0.01442371 0.022031901 -0.0789755 0.008751674 0.04149051 -0.020854035 -0.059137587
0.02658342 -0.13087294 -0.092489205 0.085439794 0.03563633 0.01859519 0.06220271 -0.03689345
0.003226451 -0.085162714 0.08195911 0.10997208 -0.10091461 0.008357623 -0.12755892 -0.0023652657
-0.043079183 -0.06894255 -0.06067157 -0.054121476 0.018965999 -0.0054749437 0.00611002 -0.1619067
00000000: 68fe bf3c 5f2b 05bd 3ddd 3ebc 3576 c1bd
00000010: 87cf 81bd 10b0 e6bc 224c f13c 0ec4 693d
00000020: 7fb7 46bd d822 573d 4803 73bd b996 a7bd
00000030: 9707 c23d 5c0c 17bd ce1f d23c 4549 fbba
00000040: 354a 06be 3116 083b 6174 ad3c b3fa ff3c
00000050: 62aa 783d 5b1c b2bd f2e3 56bd ca21 ddbc
00000060: 43de a5bd b5b6 51bc e0a6 3d3d 5dc4 9d3d
00000070: c948 403d c68a 903c ca2a f1bd 0785 c1bd
00000080: f638 37bc cdbb 4e3d 5a44 83bd 161b febd
00000090: e393 843d d300 96bb b555 0d3d b89d 983d
000000a0: 7f1f c3bd dd63 7c3d 2c96 033d 98cc a6bd
000000b0: 431d 95bd e1aa 25bd abfc 113e b6df c83d
000000c0: d0bd 78bd 8af6 f2bd 0538 94bd f854 74bd
000000d0: 1008 4fbd 6cd5 25bd 1b1d 463d dac2 3dbd
000000e0: caaf 683e b855 753c adf6 983c fe64 973d
000000f0: b862 823e 9a27 8f3e d458 653c 72fe 8bbd
00000100: 9f38 daba 451f c1bd f781 18be 379d 03be
00000110: 5dcd 5bbc 0128 9c3c 18df 78bd 065b 20bd
00000120: cc55 22be d534 05bd 76ad 273d 1726 0f3e
00000130: 7894 1dbc 4375 34be 852e 50bd 41a1 7cbd
00000140: 6206 813e fb8d 543e b53a bfbd fecf 95bc
00000150: c84b 83bc f2f0 8f3d 3f5e 49bc fc4d 9d3d
00000160: 3490 8cbc f922 663d 926d 023d 6e79 67be
00000170: 7a6d f9bc 620d da3c a2d8 86bc 5025 603d
00000180: 48a9 c2bc 762c da3c 115e 103c 6a83 1dbe
00000190: befd c6bc 5309 87bd 3d74 97bd def4 edbc
000001a0: 27e9 12bd 9a93 37bd c732 85bd 2293 e3bc
000001b0: a223 c63b 3420 fb3c 85c4 263c 01b3 50bd
000001c0: b5f6 973d 82d9 123d 39e7 8db9 7f58 95bd
000001d0: 84eb 6fbd 2a58 213b 076e a33d 0e3a 43bc
000001e0: ce35 3fbd 92cb abbc e309 ccbc 9fcf 09bb
000001f0: 7e6f 32bd 4992 9ebb 2ee5 f5bc 1668 c7bc
00000200: 48a3 b63d f9aa c8bc 6596 a1bb 5be7 513d
00000210: 0311 6ebd 2d8b 64bd a00b 03bd b6a8 5f3d
00000220: dc6e 993d a2ec 7fbd 4306 bbbd b84a 8abd
00000230: a0de 7cbc 3818 88bc 9d2d 00bd a1b4 a63b
00000240: 891d 43bd a808 45bc b001 30bd 3d58 dbbc
00000250: 819d f6bc 5379 91bc 3723 aa3c 1e9f ac3b
00000260: 94f5 cb3c 206d 083c f160 963b 6a04 eebc
00000270: 6a18 ee3c 828d 333c 7b65 263d bfd7 21ba
00000280: e598 00bc cf08 ce3c a0af b4bc 427f d6bc
00000290: 16f7 31bd 1dcf 1d3c 7c06 343d 3262 133d
000002a0: 3b85 0cbd 0817 093d ea3a a1ba d6c9 d83b
000002b0: f72d 7f3c fafa 243d da9c de3c 9b31 25bb
000002c0: d0d5 e1bc 2717 3abd f9bf 71bd 2669 55bd
000002d0: 7f4e 9a3d 76bd e83c 8815 febd 32c5 21bd
000002e0: 0586 b63d 2d85 bdbb 1dd3 383d c608 233d
000002f0: d734 ec3c 62ef c63d 964a 473d e0ee 42bd
00000300: 66df cdbc 92af 1abc caf8 853c 98da 91bb
00000310: 7596 5ebd 0c7b 0b3c 394e a6bc b1c9 a93c
00000320: 4ed5 4dbd cd3b e2bc dd20 dd3c 1cd0 613d
00000330: 3ef2 403c b939 48bb 14ef 343e cb92 523e
00000340: 67ce 8a3d 49d2 e4bc 5fd6 c3bd f178 98bd
00000350: be05 0bbc 7529 5cbe e7fa 72bd 201f 03be
00000360: d5cf 8dbd bc32 1abd a25c 0ebe 7717 6ebd
00000370: 6cb2 8abd 2a13 173c fa58 b3bd 4ca6 cb3c
00000380: 919f 103d 6d51 6cbc 3f7c b43c e8bd a1bd
00000390: 2e63 0f3c f4f1 293d 15d6 aabc 413a 72bd
000003a0: 79c5 d93c 8e03 06be fb6a bdbd 0ffb ae3d
000003b0: 66f7 113d f154 983c 45c8 7e3d 961d 17bd
000003c0: de72 533b ca69 aebd 2eda a73d 0b39 e13d
000003d0: 52ac cebd 69ee 083c ce9e 02be 9302 1bbb
000003e0: cc73 30bd c031 8dbd c182 78bd 7bae 5dbd
000003f0: 955e 9b3c 2867 b3bb 9036 c83b dfca 25be

fc1.bias f4 [120]
0.0049483636 -0.015970116 -0.022662744 -0.02636128 -0.046849098 0.030527163 -0.0035198408 -0.02055753
-0.030700078 -0.0018330865 0.0016582521 -0.000644457 -0.009778272 -0.029679785 0.0788308 0.0005728331
-0.014066378 -0.022214994 -0.020892365 0.060415186 -0.016409392 0.03545358 -0.02664432 -0.046551514
0.00036363667 0.02247736 0.032025654 0.0064535793 0.02019812 -0.021223018 0.040466253 -0.015010546
-0.03391875 0.031039195 -0.042420533 0.053044096 0.043721024 0.037323896 -0.005272817 -0.039430056
0.06307314 -0.013378341 0.006159848 0.05007697 0.0018741608 -0.0033650189 0.024035098 0.0045299637
-0.040434312 0.036051 -0.0112367375 0.018045872 -0.028120153 0.0034580408 0.019767845 0.020417508
0.014729171 -0.053936426 -0.04390174 -0.019462954 0.007061456 -0.020865658 -0.019529782 -0.0008972588
0.03733159 -0.017721437 -0.011536406 0.039467953 0.0076282625 -0.035758264 -0.001731004 0.021558456
0.022385223 -0.031120364 0.008215252 -0.028671129 0.030189665 0.021741878 0.049502004 0.047229238
0.010270147 -0.040401436 0.016929097 -0.00485905 0.012443053 -0.00062502193 -0.032846738 -0.0277811
-0.0341854 0.010282815 0.06853074 -0.05918092 0.04955118 -0.0055345986 0.009831592 -0.06789336
-0.03153451 0.04074244 0.014660513 0.009233876 -0.050920837 -0.019719452 0.01626214 0.010994406
-0.0014189141 0.014941053 0.08010025 -0.04098322 0.045251537 -0.03927838 -0.0534855 0.019740276
0.04422253 -0.00596273 0.041567706 -0.036810298 0.07219268 -0.03548191 -0.015472934 0.10446515
00000000: e225 a23b c3d3 82bc 38a7 b9bc 9cf3 d7bc
00000010: d7e4 3fbd 1a14 fa3c 21ad 66bb 4468 a8bc
00000020: bb7e fbbc 2d44 f0ba b559 d93a c7f0 28ba
00000030: 0c35 20bc 0523 f3bc 0b72 a13d 2e2a 163a
00000040: aa76 66bc 38fc b5bc 7726 abbc ea75 773d
00000050: fd6c 86bc c637 113d 3045 dabc cdac 3ebd
00000060: 7da6 be39 7122 b83c 552d 033d 8c78 d33b
00000070: 8776 a53c e5db adbc f1bf 253d cbee 75bc
00000080: 63ee 0abd e945 fe3c 27c1 2dbd c444 593d
00000090: d114 333d f1e0 183d 98c7 acbb 6981 21bd
000000a0: 7e2c 813d d430 5bbc 8dd8 c93b 821d 4d3d
000000b0: 67a6 f53a a687 5cbb 41e5 c43c 1770 943b
000000c0: 739e 25bd 37aa 133d 4b1a 38bc f0d4 933c
000000d0: 3c5c e6bc 4ca0 623b 2df0 a13c 9e42 a73c
000000e0: 9f52 713c 71ec 5cbd 50d2 33bd c670 9fbc
000000f0: c963 e73b 75ee aabc ecfc 9fbc 0536 6bba
00000100: 02e9 183d 8c2c 91bc 3203 3dbc 26a9 213d
00000110: 81f6 f93b 4277 12bd dbe2 e2ba 5c9b b03c
00000120: 3761 b73c 22f0 febc 4499 063c b7df eabc
00000130: 5150 f73c 061c b23c 9dc2 4a3d 7273 413d
00000140: 1e44 283c fa7b 25bd e4ae 8a3c aa38 9fbb
00000150: f2dd 4b3c 83d8 23ba 4d8a 06bd 3095 e3bc
00000160: fd05 0cbd 4179 283c d859 8c3d b167 72bd
00000170: 2ef6 4a3d 945b b5bb b014 213c ad0b 8bbd
00000180: 552a 01bd 8be1 263d a632 703c af49 173c
00000190: 5e92 50bd b08a a1bc 2e38 853c e221 343c
000001a0: dbfa b9ba 52cb 743c 9a0b a43d 05de 27bd
000001b0: ad59 393d 5ee2 20bd 9d13 5bbd 5cb6 a13c
000001c0: af22 353d 0163 c3bb e642 2a3d 65c6 16bd
000001d0: c1d9 933d 7b55 11bd 3082 7dbc d3f1 d53d

fc2.weight f4 [84, 120]
-0.1621606 -0.09922609 -0.03438161 -0.10641227 0.07526721 -0.01773333 0.14087872 -0.1939735
-0.018326832 -0.014784272 0.11709627 0.027823076 -0.08920804 -0.0664588 0.15002353 -0.15410936
-0.026144873 -0.08025211 0.0867032 0.105762444 -0.05511891 -0.026825573 -0.014895369 0.014177511
-0.025374161 -0.07346406 -0.01751672 -0.01439744 0.10120047 -0.13611531 0.031200351 0.07343737
-0.15768053 -0.02395442 -0.082138784 0.058320254 -0.024963561 -0.019060673 0.14629897 0.08352532
-0.13526285 -0.027366808 0.078598335 0.19788188 0.09973642 0.0022376415 0.121532984 -0.07308753
0.0065895985 -0.1309339 -0.025240526 0.00036635954 0.019406533 -0.0806976 0.14566435 -0.0020363552
0.042369492 0.15834312 -0.0073396363 -0.13934207 -0.08555158 -0.08435616 -0.11740922 0.05841407
0.04280943 -0.046027564 0.121281415 -0.040718086 0.05868105 0.07357184 0.15263243 0.2123006
0.063617624 -0.015261006 0.03323713 0.0809528 -0.03175892 -0.1068744 -0.2117878 0.11793154
0.117313206 -0.0043970146 0.050943304 -0.092143424 0.017959341 0.042788357 0.08567636 0.028970568
-0.027359145 -0.06680134 0.032267787 -0.053091947 -0.15816861 0.06488241 -0.051078413 0.09228465
-0.1315812 -0.15687788 -0.027623216 0.08349011 0.14144865 -0.09140293 -0.12596598 -0.018466601
-0.048521727 0.2170804 -0.21826553 -0.056916784 0.08915267 0.18206301 0.23655121 0.13681856
0.093728274 0.05821216 0.0054495935 -0.028334241 -0.112318896 -0.07230374 -0.039369173 0.036645114
-0.042270042 -0.050110966 -0.016139507 -0.03393296 0.018495826 0.044701874 -0.056719523 -0.025920002
0.06313236 -0.04573913 -0.0804365 0.073153965 -0.07095581 0.007708032 -0.024334827 -0.042146906
0.078940935 -0.06353523 -0.07470581 -0.071142316 -0.02262591 0.0469947 -0.032156736 0.03825924
-0.03549537 0.04873335 -0.08304828 -0.0028805013 -0.07523673 -0.022979103 -0.04501269 -0.011322273
0.019788075 -0.082369216 -0.08154171 -0.0404757 0.0069209933 -0.06928849 -0.017354524 0.017800666
0.034093622 0.011089105 0.041122667 0.0497077 0.033969443 -0.06878702 0.011610999 -0.033127427
-0.075715184 -0.0009317666 0.073213786 -0.022561267 0.051702067 0.060889352 0.058284845 -0.04187136
-0.061417535 -0.07859822 -0.08000547 0.06452613 0.01671213 0.019766554 -0.053625412 -0.016265895
0.06526403 -0.017961757 0.04146109 -0.088019535 -0.048033807 -0.013742208 0.028453477 0.01577543
0.031646904 -0.0075799697 -0.054234024 0.04806263 -0.056023736 -0.09236535 0.010540271 -0.007855415
0.037091002 0.060870867 0.04541215 -0.08317982 -0.018368073 -0.074208826 0.076215655 0.013846918
-0.042545393 -0.06787257 -0.06114383 0.042270586 -0.060027204 0.017341742 -0.05913874 0.085849404
0.0018434827 0.026147677 -0.06522095 -0.034957726 -0.081094 0.034686755 0.071485184 0.050919354
0.015406376 -0.07109273 -0.007130975 0.026098423 0.022541562 -0.0416593 -0.06815588 0.07294949
0.027579922 -0.013724326 0.06932408 -0.061621003 -0.050616454 -0.020821424 -0.047221713 -0.028235193
-0.042118978 0.036819167 -0.037068084 0.074225865 0.03378914 0.01799064 0.008241925 -0.06926023
0.0028467565 -0.035554226 -0.074320555 -0.05085553 -0.087531 -0.017902764 -0.0046425005 -0.08249024
00000000: 6e0d 26be 0c37 cbbd bbd3 0cbd adee d9bd
00000010: b225 9a3d 7d45 91bc 8342 103e fda0 46be
00000020: 2722 96bc bb39 72bc 2bd0 ef3d 38ed e33c
00000030: b4b2 b6bd 8d1b 88bd c59f 193e d8ce 1dbe
00000040: c62d d6bc 385b a4bd 7391 b13d fb99 d83d
00000050: 5ec4 61bd 4ec1 dbbc b50b 74bc cb48 683c
00000060: 79dd cfbc 5374 96bd 397f 8fbc 3de3 6bbc
00000070: 3142 cf3d d061 0bbe e197 ff3c 5566 963d
00000080: 0177 21be 0f3c c4bc 6138 a8bd 38e1 6e3d
00000090: 6280 ccbc 2125 9cbc 66cf 153e 530f ab3d
000000a0: 5882 0abe 5b30 e0bc 2af8 a03d 8ca1 4a3e
000000b0: 9c42 cc3d 65a5 123b 49e6 f83d eaae 95bd
000000c0: 8fed d73b 8913 06be 38c5 cebc f213 c039
000000d0: 73fa 9e3c c944 a5bd 0929 153e 5f74 05bb
000000e0: a28b 2d3d b324 223e 5581 f0bb b0af 0ebe
000000f0: ab35 afbd ecc2 acbd 3f74 f0bd 9843 6f3d
00000100: f158 2f3d 6687 3cbd 6462 f83d 02c8 26bd
00000110: 8a5b 703d d5ac 963d ad4b 1c3e 5465 593e
00000120: f549 823d 4c09 7abc a823 083d 95ca a53d
00000130: a415 02bd f7e0 dabd e7de 58be 1786 f13d
00000140: e841 f03d d514 90bb eda9 503d b1b5 bcbd
00000150: 781f 933c d842 2f3d 1677 af3d af53 ed3c
00000160: 4920 e0bc 24cf 88bd 3a2b 043d f176 59bd
00000170: f4f6 21be 12e1 843d 9937 51bd bcff bc3d
00000180: 39bd 06be 98a4 20be 154a e2bc ddfc aa3d
00000190: ead7 103e 7631 bbbd 3afd 00be 4547 97bc
000001a0: b8be 46bd 534a 5e3e 0081 5fbe 9321 69bd
000001b0: ad95 b63d ba6e 3a3e 7b3a 723e 2a1a 0c3e
000001c0: 9cf4 bf3d e06f 6e3d 8192 b23b 361d e8bc
000001d0: 7307 e6bd fc13 94bd 9241 21bd 3019 163d
000001e0: 5a23 2dbd 2841 4dbd 0037 84bc 4afd 0abd
000001f0: 8f84 973c 5019 373d bb52 68bd 2f56 d4bc
00000200: 8a4b 813d f458 3bbd e4bb a4bd bfd1 953d
00000210: 4851 91bd a993 fc3b d559 c7bc 3ca2 2cbd
00000220: c9ab a13d c21e 82bd 5cff 98bd 10b3 91bd
00000230: f959 b9bc 847d 403d c8b6 03bd b9b5 1c3d
00000240: 9863 11bd 9f9c 473d 3715 aabd cbc6 3cbb
00000250: b715 9abd ac3e bcbc 3a5f 38bd 0e81 39bc
00000260: 9a1a a23c 31b1 a8bd 57ff a6bd d9c9 25bd
00000270: 80c9 e23b 20e7 8dbd 132b 8ebc b4d2 913c
00000280: c1a5 0b3d 14af 353c 3e70 283d 4d9a 4b3d
00000290: 8b23 0b3d 36e0 8cbd 0f3c 3e3c a0b0 07bd
000002a0: 9010 9bbd cc41 74ba 1cf1 953d 68d2 b8bc
000002b0: 8cc5 533d 1d67 793d 17bc 6e3d 4e81 2bbd
000002c0: f490 7bbd 1bf8 a0bd e8d9 a3bd 4726 843d
000002d0: e0e7 883c 78ed a13c 52a6 5bbd 0e40 85bc
000002e0: 26a9 853d 8924 93bc 1bd3 293d 9643 b4bd
000002f0: 19bf 44bd ff26 61bc 4417 e93c 793b 813c
00000300: 2fa0 013d 6561 f8bb 7f24 5ebd 52dd 443d
00000310: 2579 65bd 0b2a bdbd 1ab1 2c3c 00b4 00bc
00000320: bcec 173d bb53 793d 1702 3a3d 2e5a aabd
00000330: a478 96bc ccfa 97bd f416 9c3d 2fde 623c
00000340: 1444 2ebd c600 8bbd f471 7abd ec23 2d3d
00000350: 16df 75bd 4510 8e3c 773b 72bd d0d1 af3d
00000360: 04a1 f13a a733 d63c 9092 85bd d52f 0fbd
00000370: 9c14 a6bd b313 0e3d d366 923d d090 503d
00000380: 066b 7c3c 1199 91bd f4aa e9bb 5ccc d53c
00000390: 15a9 b83c f1a2 2abd 4f95 8bbd 8b66 953d
000003a0: 4aef e13c ffdb 60bc c9f9 8d3d 4e66 7cbd
000003b0: 3353 4fbd b191 aabc 8e6b 41bd 7e4d e7bc
000003c0: f384 2cbd b2cf 163d b4d4 17bd bb03 983d
000003d0: 7b66 0a3d 1b61 933c 2409 073c 4fd8 8dbd
000003e0: a690 3a3b 4fa1 11bd 6035 98bd e34d 50bd
000003f0: 7443 b3bd d1a8 92bc 1e20 98bb a5f0 a8bd

fc2.bias f4 [84]
-0.011547911 -0.06700061 -0.043106135 0.013411682 0.09335118 -0.032995995 -0.11157618 0.090111434
-0.048218552 0.0025899676 0.12717143 -0.05518388 0.016506895 -0.07217336 0.18967794 0.004764237
0.025557846 0.037246812 -0.03648646 0.15512916 0.060605735 -0.071652666 0.111315705 0.1530031
0.02652752 -0.05752944 -0.12575853 0.1855161 0.004243288 -0.07144556 0.044573568 0.005558861
0.02786643 -0.057333007 -0.02103203 -0.076865934 -0.042944446 -0.061100446 -0.07105442 0.005135522
-0.042629503 0.020285077 0.01967335 0.00028362364 -0.06531089 -0.04463797 0.012593766 -0.08481872
0.06822329 -0.050738074 0.00020940354 0.20887913 -0.035658836 0.031478573 0.13382712 -0.07508452
0.027896924 0.046045728 0.038170822 -0.0868094 0.1491991 0.05016499 0.10183395 -0.0741243
-0.07447018 -0.02086567 -0.025605444 -0.09761593 0.025775744 -0.066975705 0.048692588 0.09115151
0.07329609 -0.014620906 -0.0040179016 0.031838547 -0.099830925 -0.025653576 -0.04148976 0.041474454
-0.03487759 0.1590371 0.0148910945 0.016147528
00000000: 7333 3dbc 9e37 89bd 0f90 30bd acbc 5b3c
00000010: e72e bf3d cf26 07bd 0d82 e4bd 588c b83d
00000020: d180 45bd 72bc 293b 3a39 023e 7e08 62bd
00000030: 7839 873c a0cf 93bd ef3a 423e 511d 9c3b
00000040: b05e d13c 1d90 183d d472 15bd 2eda 1e3e
00000050: b83d 783d a2be 92bd 7df9 e33d d8ac 1c3e
00000060: 3e50 d93c fda3 6bbd d8c6 00be eff7 3d3e
00000070: 480b 8b3b 0d52 92bd c692 363d 1b27 b63b
00000080: 2448 e43c 04d6 6abd 5d4b acbc e36b 9dbd
00000090: 84e6 2fbd 7644 7abd fb84 91bd e247 a83b
000000a0: 469c 2ebd e42c a63c 012a a13c 52b3 9439
000000b0: b7c1 85bd 4ed6 36bd 1556 4e3c 70b5 adbd
000000c0: a7b8 8b3d bad2 4fbd 5693 5b39 69e4 553e
000000d0: 000f 12bd adef 003d fa09 093e eac5 99bd
000000e0: 1788 e43c 729a 3c3d 0259 1c3d 20c9 b1bd
000000f0: a6c7 183e ce79 4d3d 518e d03d 7bce 97bd
00000100: d283 98bd 7bee aabc 82c2 d1bc dcea c7bd
00000110: a727 d33c 8f2a 89bd e171 473d a5ad ba3d
00000120: 431c 963d 868c 6fbc 9aa8 83bb 2369 023d
00000130: 2874 ccbd 7327 d2bc 2bf1 29bd 1ee1 293d
00000140: cedb 0ebd 9fda 223e c7f9 733c d247 843c

fc3.weight f4 [10, 84]
-0.25922593 -0.018487727 0.0547489 -0.1940224 0.42106533 -0.14759053 -0.0010410687 0.2069816
0.09039238 0.4388253 0.06220797 -0.081006356 -0.012689084 0.02406618 -0.2060532 -0.11853243
0.09217696 -0.107043274 0.031429864 -0.30877998 -0.042061403 0.022394156 -0.24764356 -0.109368384
-0.24283537 -0.08019642 0.27394196 -0.3635605 -0.2503754 -0.087162815 -0.1467621 -0.020615775
-0.10377798 -0.04320676 -0.06405952 0.058149476 0.23024128 -0.08650051 0.08238968 -0.021710176
-0.16183278 0.5916775 0.33643737 0.0823053 0.06354378 0.23111059 -0.054149132 -0.067041636
0.0010425311 -0.15930077 0.05896628 0.03776322 -0.017837752 -0.10441587 -0.21201134 -0.0645788
-0.005730653 -0.270473 -0.07578016 0.06669951 -0.226679 -0.100175194 0.19520745 -0.08007075
0.06851537 -0.14656654 0.07472906 -0.13519682 0.4407037 0.06903848 0.33665594 -0.049933806
0.029011516 0.007946989 0.06993658 -0.029142812 -0.053444616 -0.107346006 0.07827866 0.027137548
-0.08840959 0.05734432 0.010955917 -0.07493725 0.11418812 0.0050452305 -0.076869726 -0.16583243
-0.301457 -0.06937828 -0.06374941 -0.21228617 -0.09926167 -0.17532419 -0.012157211 -0.13498802
-0.3600924 -0.11345813 0.04669886 0.429949 -0.18381763 0.11741594 -0.17226472 -0.11548161
0.07826179 0.08289596 -0.15714274 0.06535308 -0.13615979 0.05721415 -0.24475524 0.16205916
-0.24634574 -0.075934306 0.06496997 0.0105743 0.009204001 0.06336314 0.030561741 -0.21132919
-0.051028367 0.40541625 -0.029841576 0.18321155 0.44637543 0.01993617 -0.22952238 0.053091608
-0.12260754 0.01808632 -0.05580132 -0.034414064 -0.2548927 -0.0171684 -0.2263546 0.2516515
-0.089391224 0.16658543 0.26874357 -0.12560238 -0.13972728 -0.3287432 0.120920114 -0.15826589
-0.3353786 -0.27946746 -0.08010712 0.1017688 -0.08112332 -0.21227756 0.004696684 -0.09906427
-0.021176903 0.09639909 -0.0701698 -0.063667536 0.40339917 -0.10040368 0.03239069 0.3797072
0.026172426 -0.23768492 0.1383295 0.19521774 -0.20190865 0.10078886 -0.09037013 0.52459913
0.2925729 -0.036220107 0.08652464 -0.117433466 0.097254016 -0.11898185 0.1025422 -0.12780406
0.19634677 -0.027116412 -0.16357298 0.11990828 0.26565439 -0.041476782 0.23647793 -0.014274491
0.04926019 -0.16035159 -0.032565046 0.22407483 0.037177302 -0.14051591 0.2792073 -0.110064566
-0.16117725 0.07706988 0.21009977 -0.22691053 0.16148776 -0.03991619 -0.15982428 0.13376921
-0.050166454 -0.07703465 -0.12556033 -0.039420903 0.109410174 -0.026287954 0.06460722 0.81403655
-0.31553844 -0.30156657 -0.16056272 0.034283146 -0.069813676 -0.055857472 -0.21875629 0.000929183
0.07182561 -0.025153862 0.28755194 0.020593798 0.10770665 0.029226812 -0.28511518 -0.0045440258
0.18137638 -0.32710695 0.023362938 0.10357485 -0.23648347 -0.06579953 0.079280354 -0.05030781
0.06254172 0.020491097 0.011104936 0.17539811 -0.2612309 -0.023297602 0.15162818 0.09676936
0.27741405 0.019334968 0.1251987 -0.38620988 -0.06609599 0.09826468 -0.092470095 0.3593613
0.0928472 -0.32121736 0.29622453 0.052842516 0.37743953 -0.008621415 -0.00081752695 -0.20137663
00000000: 43b9 84be 9373 97bc 6240 603d cfad 46be
00000010: e095 d73e f921 17be 7874 88ba fcf2 533e
00000020: a41f b93d b6ad e03e c9cd 7e3d a9e6 a5bd
00000030: e0e5 4fbc 7026 c53c 9cff 52be 21c1 f2bd
00000040: 46c7 bc3d 8139 dbbd 9abc 003d 6918 9ebe
00000050: 9448 2cbd f373 b73c 4696 7dbe 88fc dfbd
00000060: d6a9 78be 053e a4bd 1f42 8c3e 9a24 babe
00000070: 3431 80be 6b82 b2bd ce48 16be 6ae2 a8bc
00000080: 8d89 d4bd 92f9 30bd a331 83bd 252e 6e3d
00000090: 5fc4 6b3e 2e27 b1bd ecbb a83d 8ad9 b1bc
000000a0: 7eb7 25be 2d78 173f 8541 ac3e ae8f a83d
000000b0: 3e23 823d 41a8 6c3e 7bcb 5dbd 204d 89bd
000000c0: 8aa5 883a be1f 23be a086 713d 9bad 1a3d
000000d0: 7a20 92bc fdd7 d5bd 8019 59be e441 84bd
000000e0: 34c8 bbbb 707b 8abe a132 9bbd c199 883d
000000f0: 8a1e 68be a728 cdbd 76e4 473e 22fc a3bd
00000100: c951 8c3d 8a15 16be 8d0b 993d 0971 0abe
00000110: eaa3 e13e 0c64 8d3d 2b5e ac3e 6487 4cbd
00000120: 8fa9 ed3c 1634 023c e93a 8f3d e8bc eebc
00000130: bee8 5abd 39d8 dbbd 9050 a03d 904f de3c
00000140: 1610 b5bd e1e1 6a3d 7280 333c b378 99bd
00000150: 76db e93d 7652 a53b e06d 9dbd facf 29be
00000160: 9258 9abe 3316 8ebd 0d8f 82bd 8c61 59be
00000170: b449 cbbd 2f88 33be 0a2f 47bc 4d3a 0abe
00000180: 085e b8be bc5c e8bd 4e47 3f3d 4622 dc3e
00000190: b03a 3cbe c577 f03d 2a66 30be 9f81 ecbd
000001a0: b847 a03d 5bc5 a93d 07ea 20be d6d7 853d
000001b0: 796d 0bbe 6259 6a3d 1ea1 7abe d6f2 253e
000001c0: 0f42 7cbe 7283 9bbd fa0e 853d d43f 2d3c
000001d0: 61cc 163c 89c4 813d 9e5c fa3c ae66 58be
000001e0: 1f03 51bd b892 cf3e 5276 f4bc cf9b 3b3e
000001f0: 528b e43e 2e51 a33c ea07 6bbe 9676 593d
00000200: a919 fbbd c329 943c ed8f 64bd c3f5 0cbd
00000210: 4c81 82be bfa4 8cbc 80c9 67be 77d8 803e
00000220: bf12 b7bd 5f95 2a3e c298 893e e99d 00be
00000230: ab14 0fbe 0751 a8be f7a4 f73d 7410 22be
00000240: beb6 abbe 5c16 8fbe 340f a4bd 296c d03d
00000250: fc23 a6bd 4a5f 59be a4e6 993b 35e2 cabd
00000260: 2f7b adbc e36c c53d 2fb5 8fbd 2064 82bd
00000270: 568a ce3e 72a0 cdbd 1aac 043d fb68 c23e
00000280: 8e67 d63c ad63 73be 40a6 0d3e 29e7 473e
00000290: 24c1 4ebe 646a ce3d fa13 b9bd 214c 063f
000002a0: 1dcc 953e 895b 14bd d533 b13d f580 f0bd
000002b0: 1d2d c73d c2ac f3bd a501 d23d 11df 02be
000002c0: 210f 493e 3d23 debc ad7f 27be 7992 f53d
000002d0: da03 883e 8fe3 29bd 4527 723e 8edf 69bc
000002e0: 0ec5 493d 3533 24be ed62 05bd df73 653e
000002f0: 3a47 183d 67e3 0fbe 42f4 8e3e 8869 e1bd
00000300: a60b 25be d0d6 9d3d 6524 573e 3c5b 68be
00000310: 0c5d 253e 297f 23bd faa8 23be ccfa 083e
00000320: 577b 4dbd 58c4 9dbd e392 00be d077 21bd
00000330: 7112 e03d d659 d7bc ca50 843d b364 503f
00000340: 418e a1be ef66 9abe 8e6a 24be 7c6c 0c3d
00000350: 79fa 8ebd ceca 64bd a601 60be 6a94 733a
00000360: 4e19 933d 790f cebc 023a 933e 53b4 a83c
00000370: 4e95 dc3d 116d ef3c 9efa 91be 0de6 94bb
00000380: bbba 393e 907a a7be a263 bf3c 0d1f d43d
00000390: b928 72be e7c1 86bd bd5d a23d 900f 4ebd
000003a0: e015 803d f2dc a73c 7af1 353c 909b 333e
000003b0: 0ec0 85be 9dda bebc 6b44 1b3e 042f c63d
000003c0: 3709 8e3e 5e64 9e3c 1734 003e 4dbd c5be
000003d0: 565d 87bd fe3e c93d f660 bdbd 34fe b73e
000003e0: ac26 be3d 9a76 a4be beaa 973e 6571 583d
000003f0: c13f c13e d640 0dbc 4e4f 56ba ad35 4ebe

fc3.bias f4 [10]
-0.11814724 0.10547809 -0.055934906 -0.042530157 -0.047104735 0.043224253 0.01116116 -0.17766525
0.21503676 0.043305695
00000000: 2ef7 f1bd e604 d83d 001c 65bd 1a34 2ebd
00000010: e5f0 40bd ea0b 313d 4cdd 363c e1ed 35be
00000020: 9932 5c3e 5061 313d
