hw2/hw2_4/checkpoint/Fully.pth (torch_old, 421899 bytes, 6 tensors)

fc1.weight f4 [120, 784]
00000000: 5df9 db3c cded fe3c 1cbd 173d d7ad 83bc
00000010: f731 843c 6e4c 7f3b 02a3 0b3d f998 fa3c
00000020: 384d d43b 56be 263c ba34 babc d930 ce3c
00000030: 7f36 093d 836c 2b3d eff8 053c 4e56 d03c
00000040: 403d cabc 0cd6 7cbc a739 093d 14d9 e43c
00000050: 64c4 1a3b fd80 033d 5110 aabc 6876 363d
00000060: 99e7 c23c 672c ce3c 914e ff3c 612e afbc
00000070: 219c 4c3c 9e72 ff3c 1e21 06ba c8cf e63b
00000080: fb82 21bc d55d adbc bed1 3d3c 3ee5 c7bb
00000090: f5c3 c8bc 45f4 2c3c 541d 09bb 3d1d 4cbc
000000a0: 024f b8bb 3ca4 663c 3b78 a73a 5489 6d3c
000000b0: 8ba9 793c 4e96 c63c cf8d 5abc caf7 6ebb
000000c0: 177c c03c 69fc 91bc e49a c73c 658b b3bc
000000d0: 8dd7 3d3d fe9c b33b 14ba 853c 52ed 393c
000000e0: 8bc6 79bc 684f 0d3d 66a0 42bc 5ef8 afbb
000000f0: ce01 223d f253 ea3c 086c 9ebb 9474 9f3b
00000100: e56b 80bb 978e d63b f5fa fa3c a72c 173d
00000110: d44c 3a3c 8e07 a8bc 4388 1e3d 3316 5bbc
00000120: 8ad6 91bb feb9 49bb ba31 a5bc 2be8 6abc
00000130: 38b2 9fbb 62a6 d7bc 7492 28bc d808 383d
00000140: cfcb d2ba da2a 1abc f8f9 cd3b 2ca1 243d
00000150: 2880 213d 4c44 983c f3fb c7bc 318d 0d3c
00000160: c8a1 263d 5a3d 9d3c fa69 11bc 4ca0 dd3b
00000170: b8af d23c f0bf 93bc dad0 10bd 6050 bfbc
00000180: a182 fcbc dc9f 7dbd ed50 82bd 581a 77bc
00000190: 17bf 5abc 10a9 d6bb 63be c63c 3601 30bc
000001a0: c127 72bc 6831 cabc ec97 643c 5dc8 063d
000001b0: d9b3 953c 2d6e 9b3c 288a bfbc ae84 793c
000001c0: f095 cbbc 8698 a23a 7570 c4bb f415 353d
000001d0: 77e4 e237 18c5 2b3d 502d 3bbc a46a 03bb
000001e0: e14b 643c 0b49 b83c 59c7 023d 0974 0f3d
000001f0: 8aa5 24bb 5154 b3bc 5cb9 8ebd 80a4 09be
00000200: 565b 60bd aae2 953c 22c7 6f3a 4ab0 babb
00000210: b91e 62bc f168 b8bd 22e3 80bd fa85 afbc
00000220: 286f 1dbd f138 64bb 8e39 59bc 24af a23b
00000230: db9b a1bc 3b7a 98bc 0475 593c 3ce6 793c
00000240: e3f4 263d 38c1 703c 7b4d c8bc 8a2c dc39
00000250: 4346 893d 0adb a53c fec1 ddbc d292 1fbd
00000260: a4e0 4dbd 7966 e1bd 8a0b 10be d9e2 07be
00000270: 9a69 5abd 7b63 95bc d180 2fbc accd a4bd
00000280: d82f fabd 5eeb 03be b4ed 07be 8471 a5bd
00000290: 706a e9bc 6456 21bd f945 803a 34f5 5b3c
000002a0: ebd0 7f3c 5924 27bc 2557 96bc dbef 033d
000002b0: c4a6 bc3c 343f 3bbc 3000 1cbd 14be 2abd
000002c0: 4956 7b3b 1b81 a43b 222a 7fbd c7e4 663c
000002d0: 5c26 aebc 57ec adbd 607a aebd 075e a6bd
000002e0: abec 9d3d 5ad9 ad3d eee3 823c 6f90 babd
000002f0: 8fc6 b6bd 4f11 76bd 9022 d9bd 493d 2ebe
00000300: d24e c2bd abba 55bd e5b7 adbb 773f 74bc
00000310: fa57 303d 9b6e a5bc 6845 023d e940 f13c
00000320: ba0a 2a3d b4ae 4ebd d966 4ebc 1d4d 97bd
00000330: 9cfa 41bd fa14 41bd b2e2 d8bd 2bcc e1bd
00000340: 6afa 9abd 1d64 73bd f233 16bd 22aa abbc
00000350: ee9e 1b3d 1452 95ba 5024 8ebd 00a2 3ebd
00000360: 2b74 d0bc 5087 46bc 1678 50bd b84b 20be
00000370: 0d3b 6cbd 0236 a43c aa0b dbba 3ca0 083c
00000380: 0576 723c 7551 35bc 9859 d23c 9c48 153d
00000390: e3e9 223c 3238 4c3c 6edc 1fbc 2787 2ebd
000003a0: 8f57 6bbd 272d 2fbd aa3b 03bd e257 f4bc
000003b0: b3a3 b7bd 4711 e9bc f575 063d 3dea ae3c
000003c0: 1c7d 16be 9308 90bd 27c8 cf39 e8c8 4ebd
000003d0: 53f2 6abd 127e 00bd f936 093c 4212 1abd
000003e0: 3bbb d5bd c528 2bbd dffc 70bc 1150 923c
000003f0: 5f5d 8e3c eb3d 94bc 6fd2 313c 0889 203d
0.026852304 0.031119252 0.037045583 -0.016074104 0.016137106 0.0038955468 0.034091003 0.030590521
0.0064789318 0.010177216 -0.02273022 0.025169777 0.033499237 0.04185153 0.008177026 0.025431778
-0.02468741 -0.015431892 0.033502247 0.027935542 0.0023615593 0.032105435 -0.020759733 0.044546515
0.023792075 0.025167657 0.031165393 -0.02138442 0.012488396 0.031182583 -0.0005116629 0.0070438124
-0.009857888 -0.021162907 0.011585651 -0.006100326 -0.024507502 0.010556285 -0.0020922022 -0.012458143
-0.005624653 0.014077242 0.001277692 0.014498074 0.015238176 0.024241593 -0.013339474 -0.0036463612
0.02349667 -0.017820554 0.02436585 -0.021917054 0.046348143 0.0054813614 0.01632408 0.0113480855
-0.01524509 0.034499556 -0.011879062 -0.005370184 0.039552502 0.028604481 -0.0048346557 0.004866192
-0.003919112 0.0065477598 0.030637244 0.03690782 0.011370856 -0.020511415 0.038704168 -0.013371992
-0.004450624 -0.0030781026 -0.020165313 -0.01433758 -0.0048735403 -0.026324455 -0.010288823 0.04493031
-0.0016082468 -0.009409631 0.006285902 0.040192768 0.03942886 0.018587254 -0.024412131 0.00863962
0.04068163 0.019194294 -0.008875364 0.0067634936 0.025718555 -0.018035859 -0.035355426 -0.023353755
-0.030824007 -0.061920032 -0.063630916 -0.015081964 -0.013351223 -0.0065509155 0.024260705 -0.010742476
-0.014779986 -0.024681762 0.013952237 0.032905925 0.018274235 0.018973434 -0.023381308 0.015229387
-0.02485177 0.0012405075 -0.0059948512 0.04421039 2.7047687e-05 0.04193601 -0.011424378 -0.0020052576
0.013934107 0.022495767 0.031928394 0.03502277 -0.0025123083 -0.021890791 -0.06968948 -0.13441658
-0.054774605 0.018296558 0.00091467996 -0.005697285 -0.01380127 -0.09004391 -0.06293322 -0.02142619
-0.038436085 -0.0034823979 -0.013258351 0.004964726 -0.019727638 -0.018612972 0.013272528 0.015252646
0.040760886 0.014694504 -0.024451008 0.00041994854 0.067028545 0.020246048 -0.027070042 -0.038958378
-0.050263062 -0.11005873 -0.14066902 -0.1327013 -0.053323366 -0.018235913 -0.010711865 -0.08047041
-0.12216157 -0.12882754 -0.1327427 -0.08078292 -0.028493136 -0.03938903 0.0009786478 0.01342516
0.015613775 -0.010201537 -0.0183521 0.032211166 0.023028739 -0.011428643 -0.038086116 -0.04168518
0.003835099 0.0050202734 -0.06229604 0.014092631 -0.021258526 -0.08492344 -0.08519435 -0.08123403
0.077111565 0.08488722 0.015977826 -0.0910958 -0.08924591 -0.0600751 -0.106022954 -0.17015566
-0.0948769 -0.052179974 -0.005301463 -0.014907709 0.04305265 -0.020194342 0.031804472 0.029449897
0.041514136 -0.05045958 -0.012597763 -0.07387755 -0.04735814 -0.047139145 -0.10590114 -0.1102527
-0.07567294 -0.059421647 -0.036670633 -0.02095515 0.037993364 -0.0011392259 -0.0694052 -0.046541214
-0.025446018 -0.012117222 -0.050895773 -0.15653884 -0.057673503 0.020045284 -0.001671185 0.008338984
0.014798646 -0.011066784 0.025677487 0.0364462 0.009943458 0.01246457 -0.009757144 -0.04260936
-0.05745655 -0.04276767 -0.032039322 -0.029827062 -0.0896677 -0.028450621 0.032827336 0.021351928
-0.14696163 -0.070328854 0.00039631242 -0.050484568 -0.057360005 -0.03137023 0.008374923 -0.03761507
-0.10436102 -0.041786928 -0.014708727 0.017860444 0.017378507 -0.018095931 0.010853394 0.039193183

fc1.bias f4 [120]
00000000: 94f0 9a3b ba60 37bd 37d7 ccbc 8670 873b
00000010: 6224 2d3c 9b00 c63c 8138 0ebd 3ab4 b5bc
00000020: 258d 723b 6e6d 883b e24b 063b 4d00 96bb
00000030: 2398 1bbd 0b0a 74bc d4e9 c73c a07e 9cbc
00000040: 9af2 8f3c 870e d13c f405 58bc b898 66bd
00000050: 78d5 16bd 0b02 b4bc 82ed fbbc 6fc1 483b
00000060: a477 0bbd 820a 07bc b7e8 a7bc 9e80 05bb
00000070: 007b dcbc 3d97 f4bc 7454 e3bc 28ff 14bc
00000080: f512 b8bc f8f7 103c 4884 a73d a94a 6fbb
00000090: 42ec aebc f298 e23c 941a 7bbd fab3 d1bc
000000a0: 4eb1 51bd 1aec 933c 9179 67bb e4b4 7f3c
000000b0: a166 a6bc 3482 e6bc cf68 343c 2ff2 0c3d
000000c0: fda6 72bc 9aa7 8bbc a8c7 4e3b 2f01 df3b
000000d0: c5ca e33b 09f3 3abc 84e7 acbc 8aed df3c
000000e0: 7c1c 06bc 51bb c9ba 1571 1a3b af83 e5bc
000000f0: c8f8 94bc bfef 903c 9071 1d3d 4a21 8a3c
00000100: cf47 f53c 578c e93b 1e20 77bd f849 85bc
00000110: b44d 0bbd 661a 13bc b7a2 0bbd 72e3 febc
00000120: f69d 4abc 0810 5dbd 03f6 44bd 731b 29bb
00000130: 1155 913c 4d20 fe3b 1b92 00bc ba4f 753c
00000140: 781b 53bc d6ab 61bd 10bc 3d3c a922 353d
00000150: 618d 0fbc ab6a 7dbc 986a 24bd 808d 62bd
00000160: 2664 a7bc 6df6 65bc b2bb 02bd 019e f5bc
00000170: 9386 01bd fa14 68bc d05c dcbc 1d42 51bd
00000180: c7d3 8d3b fc4f dd3b d10d 0cbd 9d66 05bb
00000190: cdea 06bc 6d79 c6bc 74ab 343c e4a1 c53b
000001a0: edd3 f9bc 7fed 243c 7f33 ffbc 4532 853c
000001b0: a15f 93bb a27e cdbc c157 c1bb 2b54 adbc
000001c0: 384f 923c b344 7c3b ba65 1dbc 38b1 30bd
000001d0: f783 3cbc ecf2 6bbc 4b09 0d3d 5066 fd3b
0.004728386 -0.04476998 -0.025004966 0.004133287 0.010567756 0.02417021 -0.034721855 -0.022180665
0.0037010398 0.0041634357 0.0020492007 -0.0045776726 -0.037986886 -0.014894973 0.02440349 -0.019103348
0.017571736 0.025519622 -0.013185013 -0.056297988 -0.036824673 -0.02197363 -0.030752901 0.0030632874
-0.034049645 -0.008242251 -0.02049671 -0.0020370851 -0.02691412 -0.029857272 -0.027750231 -0.009094037
-0.022469977 0.008848183 0.081795275 -0.0036513007 -0.02135289 0.02766082 -0.061304644 -0.025598515
-0.05119448 0.018056918 -0.0035320262 0.0156070925 -0.02031261 -0.028138258 0.011011316 0.03441065
-0.014810321 -0.017047692 0.003155211 0.006805561 0.0069516622 -0.011410483 -0.021106489 0.027334947
-0.008185502 -0.0015390908 0.0023565937 -0.028016893 -0.018185034 0.017692445 0.03843838 0.016861577
0.029941468 0.0071273255 -0.060333364 -0.016270623 -0.03400965 -0.008978462 -0.034090724 -0.031114314
-0.012366762 -0.053970367 -0.048086178 -0.0025803715 0.017740758 0.0077553154 -0.007847334 0.014972622
-0.012884967 -0.055095516 0.011580482 0.044222508 -0.008761735 -0.015467326 -0.04014072 -0.055310726
-0.020433497 -0.014035803 -0.03191728 -0.029982569 -0.03162248 -0.014165157 -0.026899725 -0.05108844
0.0043282243 0.0067539196 -0.034192864 -0.0020355352 -0.008234692 -0.024227822 0.011027206 0.0060312618
-0.030496562 0.010066389 -0.031152485 0.016259322 -0.004497484 -0.025084797 -0.0059003537 -0.021158298
0.01786004 0.0038493096 -0.009606773 -0.04313776 -0.011506072 -0.014401179 0.03443269 0.007733144

fc2.weight f4 [84, 120]
00000000: 0ab3 27be 53a3 a43d 0f63 0e3e d5ea c13c
00000010: 61a6 61be 53ef 52bd 0dc7 f8bc 49a7 40bd
00000020: 61ab 6fbe 5803 4d3d 4a6b fabb cb7d ee3d
00000030: 0dca 4b3a ffde c23d 5752 a93c 74ce 303d
00000040: e4b3 b4bd 2dca 6cbd bc69 b23d e1a5 b03d
00000050: 845c f23d d385 073c b33b a03d 3716 903d
00000060: 2a21 51bb 7cdd 0fbe 7f83 dbbd bc08 1d3d
00000070: ba34 023d ffba 463e 15ac 533c e387 9ebd
00000080: ad79 e0bd 1372 843d 1599 aa3d 73c4 de3d
00000090: 6400 9a3e 370f 40bd 0ce9 20bd 74b4 253d
000000a0: 494a b03d b150 48bb fda1 a73d 0ba2 50bc
000000b0: 3dcb ab3d 338f 50bd 71f6 a03d 2fed f93d
000000c0: d253 8abb f6c3 fcbb d579 aa3d cab7 18be
000000d0: 3a9e c3bd ccb1 5b3d cad6 e53d d070 c93d
000000e0: 2795 15bd e9f5 4f3e a05e 7a3d bba9 e43d
000000f0: 8dbf 64bd e8db e53d dd78 bebc eff7 a5bc
00000100: d246 c53c 61bf 27bd 576b 4bbd 2ab7 95be
00000110: 8827 f6bc 3151 5e3d 71a9 c1bd e15c 763b
00000120: 2a0e 7b3c 0719 173e 3eaa cdbd b67d 8eba
00000130: 5ef6 30be 7353 0dbe aa82 adbd f68e fdbb
00000140: 1641 2f3d 7914 d7bd e168 283d 24e2 d2bd
00000150: 4eaa a7bd 5af0 b93d 456f e53c 271b 8cbd
00000160: af97 263e 0058 123e 105c aabd 5c98 4abd
00000170: a626 5b3d f2dc 1e3e 092d eb3d 2370 0abe
00000180: 4aee 1cbc 4b82 973d 0cab 1abe 887f 15be
00000190: d4b6 5cbe 801d 5e3d fba3 173d c190 a53c
000001a0: fe8e fb3d 44b7 c2bc d474 4d3c 3f81 823d
000001b0: 72fb 153d a679 f03d 97a1 f8bd df38 01bc
000001c0: dc0a 87bd 07c2 9e3d 3c7f b03d 2b5c 733d
000001d0: 4ed6 f73d 53c7 eebd a358 533d b88c 30bd
000001e0: 7a7d 0e3e 960a 743d f25a a1bc 1940 80bd
000001f0: fcae 823d e09a 39be b25f 3c3c fc20 99bc
00000200: 0a05 e4bd f3e0 e8bb 7a97 1f3e 18e4 043e
00000210: 4ef6 fcbc 96d3 d03d 7852 fd3c bfe6 c33d
00000220: adcf 6bbd 9bec 6d3d 767c 413d f0f6 763d
00000230: c719 903d f870 06be a51a cfbd f4b3 233d
00000240: cf90 b23c 9daf a43d 327f 5f3d 3c51 88bd
00000250: 81fb 773d 0132 383d a712 c6bc 6b6f 87bd
00000260: b40b 4dbd 949d b4bd 7c32 bbbc c81c 0fbe
00000270: 26dd 26be 69ad 473d faf9 113e 4d5c 173e
00000280: ad97 0ebd e051 2dbe 8d4a 3f3e e57c 1bbe
00000290: 1d39 943c fb4d 29bc 31ce 113d 7b68 ba3b
000002a0: 7dce 163c ca01 293d 2c64 b43d 9b45 a23e
000002b0: e02f 1cbe 3feb f1bd 0597 f1bd 4b60 aabd
000002c0: 8025 00bd 6ef0 49be b590 dfbd 2e1b 1e3d
000002d0: 24d7 95bd bedc 15bd 3765 acbd fbde bfbd
000002e0: 54de 8e3d 460e f3bd 7791 2a3e 9522 513d
000002f0: 3636 83bd 1929 e93c 8c87 433e d418 a9bd
00000300: 1e23 babd afca cf3a cc3c 3b3e 36ed ad3d
00000310: 7424 afbb 5eec df3d 3926 713d 714c 883d
00000320: 0ebd 92bd d593 2cbe 4f82 7abe f56a 2b3e
00000330: 603e b03d 20df 25bc 3043 4cbe c2d9 133e
00000340: d1e2 db3d 3dfe 063e 6628 673d 5731 4b3e
00000350: 869d c83c d598 a2bd 46db 9abb 6df8 953d
00000360: c279 cfbc 907b 063d ff50 87bd 9e26 3abd
00000370: 5091 433e 1aa9 feba 1938 2dbd 4e7b 103e
00000380: 8599 41bd e43f e53d fd51 17be 9cc0 acbd
00000390: 3030 303d b5da e1bd 7912 f83d 7371 2d3d
000003a0: 82b9 6cbd b0de 18be 8860 9dbd 3a45 d0bd
000003b0: 1a86 33bd 1e20 863d b351 063e 2c82 f23d
000003c0: 408b ca3d 4d8c a9bd 12dc 9b3b 7890 a2bd
000003d0: da31 a53e 1c69 8abd afdd d83b ca38 c2bd
000003e0: a273 b43d 1000 d83b 8baf 89bd 7a12 d33d
000003f0: 5743 38bd 47ab 403e d31e 723c 11f4 5fbe
-0.16376892 0.08038964 0.13904975 0.023671547 -0.22036125 -0.05149777 -0.030368352 -0.047034536
-0.2340522 0.050052017 -0.0076421844 0.11645087 0.00077739434 0.095151894 0.020669146 0.04316564
-0.08823374 -0.057809997 0.087115735 0.08625389 0.11834052 0.008271652 0.07823887 0.07035487
-0.0031910636 -0.14049333 -0.1071844 0.038338408 0.031788565 0.19407271 0.0129194455 -0.07740762
-0.10960708 0.064670704 0.08329979 0.108773135 0.30078423 -0.04688951 -0.03928475 0.040455297
0.08607919 -0.0030565674 0.08185194 -0.012733947 0.08388374 -0.050917815 0.07859505 0.12203442
-0.004221418 -0.00771379 0.08324019 -0.1491386 -0.09551664 0.053636357 0.112226084 0.098359704
-0.036519196 0.20308651 0.061125398 0.11165186 -0.05584674 0.112235844 -0.023250991 -0.020259826
0.024081621 -0.040953998 -0.049662914 -0.29241306 -0.030048147 0.05427665 -0.094561465 0.0037591981
0.015323201 0.14755641 -0.10042237 -0.0010871205 -0.17281482 -0.13801365 -0.08472188 -0.0077379895
0.04278668 -0.10501952 0.041115645 -0.10297039 -0.0818678 0.090790465 0.028007159 -0.068411164
0.162688 0.14291382 -0.08318341 -0.049461707 0.053503655 0.15513971 0.11483199 -0.1351934
-0.009578297 0.07397898 -0.15104312 -0.1459943 -0.21554118 0.054227352 0.03702162 0.020210626
0.12283133 -0.023769028 0.012540061 0.06372308 0.03661675 0.117419526 -0.12140196 -0.007887094
-0.06593868 0.077518515 0.08618018 0.05941407 0.12101422 -0.11659112 0.051598202 -0.04310295
0.13915053 0.059580408 -0.019696686 -0.06262226 0.06381032 -0.18125486 0.011497425 -0.018692486
-0.111337736 -0.007106894 0.15585127 0.12977636 -0.030879166 0.10196607 0.030923113 0.09565496
-0.057571102 0.058086973 0.047237836 0.06029409 0.07036167 -0.13129032 -0.10112504 0.03996654
0.021797566 0.08041308 0.054564662 -0.06656119 0.060542587 0.044969562 -0.024178816 -0.06613048
-0.05005999 -0.08819118 -0.022851221 -0.13975823 -0.16295299 0.04874936 0.14255515 0.14781304
-0.034812618 -0.16925764 0.18680783 -0.15184362 0.01809364 -0.010333533 0.03559703 0.0056887246
0.009204504 0.04126147 0.08808169 0.3169373 -0.15252638 -0.11812448 -0.11796383 -0.08319148
-0.031285763 -0.19720623 -0.109162726 0.03860014 -0.073164254 -0.03658747 -0.08417743 -0.09368702
0.069759995 -0.11867957 0.16657053 0.05105837 -0.06406824 0.02846198 0.19094676 -0.08256689
-0.09088729 0.0015853251 0.18284911 0.0849251 -0.0053449217 0.10933755 0.058874343 0.06655205
-0.071649656 -0.16853268 -0.24463771 0.1674002 0.08605647 -0.010123998 -0.19947505 0.14438537
0.10736621 0.13182922 0.05643501 0.1984304 0.024489176 -0.07939307 -0.0047258465 0.07322774
-0.025326613 0.032832682 -0.06607246 -0.045446984 0.19098401 -0.0019429058 -0.042289827 0.14109537
-0.04726555 0.11193827 -0.1477737 -0.08435175 0.043014705 -0.11028043 0.121128984 0.04234452
-0.0577941 -0.14928699 -0.076844275 -0.10169454 -0.04382906 0.065490946 0.13117103 0.118412346
0.09889841 -0.082787134 0.004756459 -0.079377115 0.32264596 -0.06758329 0.0066182236 -0.09483488
0.08811118 0.0065918043 -0.06722935 0.103062585 -0.044986095 0.18815337 0.014777857 -0.21870448

fc2.bias f4 [84]
00000000: 38da 53bd a9b2 983c e054 013e 2d37 793b
00000010: 01e7 d03c 34d0 a53a 1079 3f3d d03b aebd
00000020: b6b8 0d3b b941 c7bc 1408 a63d d509 bb3e
00000030: 0096 65bc 536f afbd ccc4 68be 0d91 343e
00000040: 67e5 c13d 4f3c 95bc 2ccd 43bd 5645 383d
00000050: 6601 f23c c375 cebd 1f1c 88bd 9151 d43d
00000060: e72f 7c3d 96ad 39bd e58a b83c 7d0a 38bc
00000070: 9b57 ecbc 7641 6ebc 85ee 02be ea98 a3bd
00000080: 0f17 01be 052e 89bc f95b 643b 51c2 45bd
00000090: 09c2 223e 50c6 d2bc b939 c43d e961 213c
000000a0: b35f 063e 2b3b e6bd caa9 cfbc b495 4f3c
000000b0: ad2f 9dbd f410 c73c 2be5 753e 49fa bcbc
000000c0: b349 f73c 8ac3 45bd c0c9 1abe c185 523d
000000d0: 6269 563e dd24 bdbc d86d 493e 251e ccbc
000000e0: f7df cb3c c465 2dbe f8de f73d f798 af3e
000000f0: 95de b23d 14b5 143e ffc4 a73c e12e 13be
00000100: b992 ec3d 8fa4 a23e 1253 993e d341 293d
00000110: 0cbf c23c 9179 e13b 3ca0 dfbc 5b59 2e3e
00000120: d577 f73d d8ce 56bd e07e e8bd 14cd e6bc
00000130: da2e 38be 2da2 ce3b bacd 31bd 0324 4fbe
00000140: 52d1 f5bd 0fa2 0cbd e0a4 73bd 06e0 ca3d
-0.05172178 0.01863988 0.12630033 0.0038027272 0.025500776 0.001265055 0.046746314 -0.08507502
0.002162499 -0.024323331 0.081070095 0.3653094 -0.014012814 -0.08566155 -0.22731322 0.17633457
0.09467583 -0.018217234 -0.04780309 0.044988 0.029541682 -0.10081055 -0.06645989 0.1036712
0.06156912 -0.04533156 0.022527168 -0.011232969 -0.028850367 -0.014541974 -0.127863 -0.079881504
-0.12606452 -0.016745577 0.003484486 -0.048281018 0.15894331 -0.025729328 0.09581322 0.009850004
0.13122444 -0.11241754 -0.025349516 0.012669969 -0.07675109 0.024300076 0.24013202 -0.023068564
0.03018651 -0.048282184 -0.15116024 0.05139709 0.20938638 -0.023088867 0.19670808 -0.024916718
0.024887068 -0.16933352 0.12103075 0.3429639 0.087338604 0.14522201 0.020479677 -0.14373352
0.115514226 0.31766173 0.2994619 0.04132254 0.023772739 0.006880947 -0.027298085 0.17026274
0.12083403 -0.052443355 -0.113523245 -0.02817396 -0.17986622 0.006305954 -0.043409087 -0.20228581
-0.12002815 -0.03433424 -0.05948341 0.0990601

fc3.weight f4 [10, 84]
00000000: ea77 84be 7b97 c7be 88c3 06be e4c7 e9bc
00000010: f844 623e a004 81bc 08a3 03be 3467 e73b
00000020: 4ecf a63d b93c 82be 1c14 03be 18f0 d5bd
00000030: 4503 58be 6a3d 4b3e ac4f 70be 9054 c93e
00000040: f203 81be 4ed9 6cbe 4509 4cbe f474 f73e
00000050: 8eef c93c 58b1 1a3f cb9c b7bd e2c1 91be
00000060: c6d9 1a3e 55e0 b9bd 360b 80bd e0ad 53be
00000070: ee08 bdbe c160 f03d 705f e5bd c0f5 2e3f
00000080: 1a01 e33e 7b36 e8bd d8a9 ab3d 8be1 dbbe
00000090: 6fb4 20bf 8ad9 b63e 0f82 963c 2f7f 75be
000000a0: 4468 b43e 2c85 a93e 9c17 283e 8e46 923c
000000b0: 5e2c acbe 25cb 4bbc fe3c 13bf 3464 343e
000000c0: b1fe cc3e cf64 9bbe f985 063e 5fae a53d
000000d0: 9b32 99be 3eac b03c 9ee5 37be b16c 10bc
000000e0: df33 d9bd 0890 07be 5773 f6bd 4c7d b1bc
000000f0: 2515 f83d 3862 c83d 1d00 16be 4f13 193e
00000100: 0b92 0f3f 0719 1cbf b677 993e 533f c23e
00000110: 3cdc 18be 30ee a2bd d841 dbbd b1d2 1c3e
00000120: 6d38 25bf c94a bbbb 3dec 44be dd80 acbe
00000130: b1c2 1c3e 6f61 14bd 61ca e63d 58a4 a03e
00000140: 5ec8 18be 01ce 65be 3dc0 c3bc d64e c1bd
00000150: b9a3 293e c417 1dbe e89e c43b 5aea 883d
00000160: 6d24 9cba 0ed6 203e 84e4 b23e f147 9b3d
00000170: daea b03d fb10 2e3f 5ee0 8ebe 0405 68be
00000180: e710 953d b530 55bd bf66 f93e ecaf 88be
00000190: 97e1 f73d 39a5 8a3e 071d 0dbe c5fd 0cbe
000001a0: d5e7 35be fbbd 86be 6231 243d ab37 0e3d
000001b0: 1d76 8abe 44ad 943e 07d9 6fbc c792 8bbe
000001c0: 1d9c 49be 80fd f13e 3bf2 233e 449a 873e
000001d0: 0d45 573d 28a2 72bc b4fe a3bd 827b f73e
000001e0: 3a17 163e 5444 0c3d aba1 8b3d a4a7 ed3e
000001f0: 44bf 50bd 02b7 58be 3842 c93d ee6f 533c
00000200: 3214 ce3e e124 243e 8511 063d 76a7 cf3c
00000210: 8806 2fbe 85cf aabb 3926 77bd be12 33be
00000220: fd3c 71be 552d 12be 69f5 84be 05f3 b43d
00000230: 2044 2e3e 2265 923c c135 08bf 594f 283d
00000240: d0cc a1be f7c5 06bc 2436 1b3e a5c5 9d3e
00000250: 20d8 b8be 1639 993c 97f8 b2be dd9a 293e
00000260: c9f9 88bd 4f95 813d ea6f d8bc efd5 9cbe
00000270: 4218 753e c290 17bd e527 ef3d 2f2f 85bd
00000280: 5f07 e83d a1b4 0cbe 7316 95be 4efa abbd
00000290: 5bc9 fb3e 383c 223d c9a2 e63e 652f 90be
000002a0: 8d89 97be b6f1 803e 8acb b2be 216c ddbd
000002b0: f6af 8bbe 6dc8 b3be cca1 a93d d937 38be
000002c0: c7f4 14bd d19d c2be d7c1 fd3e 14de a63c
000002d0: 6686 5fbe 6aad dabe 4e1a 713e a4a8 1dbe
000002e0: afb0 b43e 022a 323e 37db bc3e 059d 89bd
000002f0: ea78 9a3c 8732 803e 30a1 3dbe 18d7 e13c
00000300: a93d 4c3e 1607 97be f670 14be ffd1 093e
00000310: 8205 8c3d 80fa 99be 23a7 81be bc8f 2b3f
00000320: bb89 243e c212 243d 84ae fd3d c4bb 64be
00000330: d6a5 4c3d 544f 323d e80d abbe 859a fc3e
00000340: 74fd 523e 14cb c93e 63dc 1fbe 25f2 07bc
00000350: 7b7b 003f 9f8f 993e 8588 09bf b365 36be
00000360: 2919 41be 36c3 4bbc 9e42 f63c 55ec abbd
00000370: eb1f b7bd 55db 473e 11ae c6be c675 0a3d
00000380: b541 e33c 18f0 883e e4e4 1dbd c989 4ebe
00000390: 8f30 42be 1062 66be 6950 a23d 2c0c 2d3e
000003a0: 4299 043f 3eb5 103f ebf5 04bf 063e 54be
000003b0: d8a0 3ebe 10c5 cebd 5f8f 9ebd fba3 c03c
000003c0: 04cd 23bf 9bd6 21bc 0911 9fbe efa0 003e
000003d0: dcec 253d ba0c 5abd cf83 0c3f ee35 8cbe
000003e0: 87cb c63d 7194 f03d a586 66be a96d 8f3d
000003f0: 0018 2bbe 768a f63d 084a 6d3e e4b6 0ebd
-0.25872737 -0.38982758 -0.13160527 -0.028537698 0.22096622 -0.015749276 -0.1285516 0.0070618633
0.08145009 -0.25436953 -0.1280064 -0.10446185 -0.21094997 0.19847646 -0.23467892 0.3932233
-0.25198323 -0.2312977 -0.19925411 0.48331416 0.024650361 0.60426855 -0.08965453 -0.28468233
0.15122136 -0.09075991 -0.06252138 -0.20671797 -0.36920875 0.11737204 -0.11199844 0.68343735
0.44336778 -0.11338516 0.083820045 -0.42945513 -0.6277532 0.35712844 0.018372564 -0.23974298
0.35235798 0.33109415 0.16415256 0.017855909 -0.336276 -0.01243857 -0.5751494 0.1761635
0.40038064 -0.30350348 0.13137044 0.08089899 -0.2992142 0.021566506 -0.17958686 -0.008814977
-0.10605597 -0.13238537 -0.12033718 -0.021666192 0.12113408 0.09784359 -0.1464848 0.14948772
0.5608222 -0.6097569 0.29974145 0.37938938 -0.14927763 -0.07955587 -0.10705918 0.15314747
-0.64539224 -0.005715702 -0.19230743 -0.33692065 0.15308644 -0.036225732 0.112690695 0.31375384
-0.14920184 -0.22441866 -0.023895377 -0.09438865 0.16566361 -0.15341097 0.0060003884 0.06685324
-0.0011912711 0.15706655 0.3493997 0.07582081 0.086385444 0.6799466 -0.27905554 -0.22658163
0.072786145 -0.052048404 0.48711202 -0.26696718 0.12103575 0.2707918 -0.13780604 -0.1376868
-0.17764218 -0.2631682 0.040086158 0.034721058 -0.27043238 0.2903844 -0.014639146 -0.2726042
-0.19688459 0.47263718 0.16010372 0.26484883 0.052556086 -0.014809169 -0.08007565 0.48336416
0.14657298 0.03424485 0.06817945 0.46416962 -0.050963655 -0.21163562 0.09827083 0.012905104
0.40249783 0.16029693 0.03273155 0.025348406 -0.17092335 -0.0052127265 -0.060339186 -0.17487618
-0.23558421 -0.14275105 -0.25968483 0.08835415 0.17018175 0.01787049 -0.5320702 0.041091297
-0.31601572 -0.008225909 0.15157372 0.30814853 -0.3610239 0.018703979 -0.34955284 0.16562982
-0.06688268 0.063273065 -0.026420552 -0.30631968 0.23935035 -0.037003286 0.11677531 -0.0650314
0.11329531 -0.1374078 -0.2911869 -0.08397351 0.4917706 0.03960821 0.4504607 -0.2816116
-0.2959713 0.2518441 -0.34920913 -0.108116396 -0.27282685 -0.3511385 0.082828134 -0.17990054
-0.03636625 -0.3801103 0.4956195 0.020369567 -0.21828613 -0.4271043 0.2354519 -0.15396363
0.3529105 0.17398837 0.36885998 -0.06719402 0.018856484 0.2503855 -0.1851852 0.027568385
0.19945396 -0.29497594 -0.14496216 0.13459013 0.06836988 -0.3007393 -0.25322828 0.67016196
0.16068165 0.04005695 0.12386802 -0.22337252 0.04996284 0.043532684 -0.33409047 0.4933664
0.20604497 0.3941275 -0.15611415 -0.008297478 0.50188416 0.29992387 -0.5372394 -0.17812233
-0.18857254 -0.012436679 0.030061062 -0.08394686 -0.08941635 0.19517262 -0.38804677 0.033803724
0.027741292 0.26745677 -0.038548365 -0.20169748 -0.18963836 -0.22498345 0.07925493 0.16899174
0.5179635 0.56526554 -0.5193774 -0.20726785 -0.18616045 -0.100961804 -0.077421896 0.023515692
-0.63984704 -0.009877826 -0.31067684 0.12561391 0.04050909 -0.053234793 0.54888624 -0.27384895
0.097067885 0.11747063 -0.225123 0.07003338 -0.16708374 0.12038128 0.23172772 -0.034842387

fc3.bias f4 [10]
00000000: b98d 08be d51f 18be 057a 08be ef0a e73d
00000010: 3cb5 773d c05d 36bd 6bfd c9bd 9e93 17be
00000020: 4d3a 0a3f 36dc 013e
-0.13335313 -0.14855893 -0.13327797 0.11281382 0.060475573 -0.044523 -0.09862789 -0.14802405
0.5399521 0.1268166
